…
          "base_uri": "https://localhost:8080/"
        },
        "id": "qxU0TdjCt1El",
        "outputId": "0e9dd6da-c1a9-46b2-fe9b-6d86b159a8ff"
      },
      "execution_count": null,
      "outputs": [
        {
          "output_type": "stream",
          "name": "stdout",
          "text": [
            "Model: \"sequential\"\n",
            "_________________________________________________________________\n",
            " Layer (type)                Output Shape              Param #   \n",
            "=================================================================\n",
            " conv2d (Conv2D)             (None, 148, 148, 32)      896       \n",
            "                                                                 \n",
            " max_pooling2d (MaxPooling2D  (None, 74, 74, 32)       0         \n",
            " )                                                               \n",
            "                                                                 \n",
            " conv2d_1 (Conv2D)           (None, 72, 72, 64)        18496     \n",
            "                                                                 \n",
            " max_pooling2d_1 (MaxPooling  (None, 36, 36, 64)       0         \n",
            " 2D)                                                             \n",
            "                                                                 \n",
            " conv2d_2 (Conv2D)           (None, 34, 34, 128)       73856     \n",
            "                                                                 \n",
            " max_pooling2d_2 (MaxPooling  (None, 17, 17, 128)      0         \n",
            " 2D)                                                             \n",
            "                                                                 \n",
            " conv2d_3 (Conv2D)           (None, 15, 15, 256)       295168    \n",
            "                                                                 \n",
            " max_pooling2d_3 (MaxPooling  (None, 7, 7, 256)        0         \n",
            " 2D)                                                             \n",
            "                                                                 \n",
            " flatten (Flatten)           (None, 12544)             0         \n",
            "                                                                 \n",
            " dense (Dense)               (None, 512)               6423040   \n",
            "                                                                 \n",
            " dense_1 (Dense)             (None, 3)                 1539      \n",
            "                                                                 \n",
            "=================================================================\n",
            "Total params: 6,812,995\n",
            "Trainable params: 6,812,995\n",
            "Non-trainable params: 0\n",
            "_________________________________________________________________\n"
          ]
        }
…
